Time: 2023-03-24 16:00:31,642 -- INFO: epochs: 100, batch_size: 4, lr: 0.0001
Time: 2023-03-24 16:00:31,642 -- INFO: Segformer(
  (mit): MiT(
    (stages): ModuleList(
      (0): ModuleList(
        (0): Unfold(kernel_size=7, dilation=1, padding=3, stride=4)
        (1): Conv2d(147, 32, kernel_size=(1, 1), stride=(1, 1))
        (2): ModuleList(
          (0): ModuleList(
            (0): PreNorm(
              (fn): EfficientSelfAttention(
                (to_q): Conv2d(32, 32, kernel_size=(1, 1), stride=(1, 1), bias=False)
                (to_kv): Conv2d(32, 64, kernel_size=(8, 8), stride=(8, 8), bias=False)
                (to_out): Conv2d(32, 32, kernel_size=(1, 1), stride=(1, 1), bias=False)
              )
              (norm): LayerNorm()
            )
            (1): PreNorm(
              (fn): MixFeedForward(
                (net): Sequential(
                  (0): Conv2d(32, 256, kernel_size=(1, 1), stride=(1, 1))
                  (1): DsConv2d(
                    (net): Sequential(
                      (0): Conv2d(256, 256, kernel_size=(3, 3), stride=(1, 1), padding=(1, 1), groups=256)
                      (1): Conv2d(256, 256, kernel_size=(1, 1), stride=(1, 1))
                    )
                  )
                  (2): GELU(approximate='none')
                  (3): Conv2d(256, 32, kernel_size=(1, 1), stride=(1, 1))
                )
              )
              (norm): LayerNorm()
            )
          )
          (1): ModuleList(
            (0): PreNorm(
              (fn): EfficientSelfAttention(
                (to_q): Conv2d(32, 32, kernel_size=(1, 1), stride=(1, 1), bias=False)
                (to_kv): Conv2d(32, 64, kernel_size=(8, 8), stride=(8, 8), bias=False)
                (to_out): Conv2d(32, 32, kernel_size=(1, 1), stride=(1, 1), bias=False)
              )
              (norm): LayerNorm()
            )
            (1): PreNorm(
              (fn): MixFeedForward(
                (net): Sequential(
                  (0): Conv2d(32, 256, kernel_size=(1, 1), stride=(1, 1))
                  (1): DsConv2d(
                    (net): Sequential(
                      (0): Conv2d(256, 256, kernel_size=(3, 3), stride=(1, 1), padding=(1, 1), groups=256)
                      (1): Conv2d(256, 256, kernel_size=(1, 1), stride=(1, 1))
                    )
                  )
                  (2): GELU(approximate='none')
                  (3): Conv2d(256, 32, kernel_size=(1, 1), stride=(1, 1))
                )
              )
              (norm): LayerNorm()
            )
          )
        )
      )
      (1): ModuleList(
        (0): Unfold(kernel_size=3, dilation=1, padding=1, stride=2)
        (1): Conv2d(288, 64, kernel_size=(1, 1), stride=(1, 1))
        (2): ModuleList(
          (0): ModuleList(
            (0): PreNorm(
              (fn): EfficientSelfAttention(
                (to_q): Conv2d(64, 64, kernel_size=(1, 1), stride=(1, 1), bias=False)
                (to_kv): Conv2d(64, 128, kernel_size=(4, 4), stride=(4, 4), bias=False)
                (to_out): Conv2d(64, 64, kernel_size=(1, 1), stride=(1, 1), bias=False)
              )
              (norm): LayerNorm()
            )
            (1): PreNorm(
              (fn): MixFeedForward(
                (net): Sequential(
                  (0): Conv2d(64, 512, kernel_size=(1, 1), stride=(1, 1))
                  (1): DsConv2d(
                    (net): Sequential(
                      (0): Conv2d(512, 512, kernel_size=(3, 3), stride=(1, 1), padding=(1, 1), groups=512)
                      (1): Conv2d(512, 512, kernel_size=(1, 1), stride=(1, 1))
                    )
                  )
                  (2): GELU(approximate='none')
                  (3): Conv2d(512, 64, kernel_size=(1, 1), stride=(1, 1))
                )
              )
              (norm): LayerNorm()
            )
          )
          (1): ModuleList(
            (0): PreNorm(
              (fn): EfficientSelfAttention(
                (to_q): Conv2d(64, 64, kernel_size=(1, 1), stride=(1, 1), bias=False)
                (to_kv): Conv2d(64, 128, kernel_size=(4, 4), stride=(4, 4), bias=False)
                (to_out): Conv2d(64, 64, kernel_size=(1, 1), stride=(1, 1), bias=False)
              )
              (norm): LayerNorm()
            )
            (1): PreNorm(
              (fn): MixFeedForward(
                (net): Sequential(
                  (0): Conv2d(64, 512, kernel_size=(1, 1), stride=(1, 1))
                  (1): DsConv2d(
                    (net): Sequential(
                      (0): Conv2d(512, 512, kernel_size=(3, 3), stride=(1, 1), padding=(1, 1), groups=512)
                      (1): Conv2d(512, 512, kernel_size=(1, 1), stride=(1, 1))
                    )
                  )
                  (2): GELU(approximate='none')
                  (3): Conv2d(512, 64, kernel_size=(1, 1), stride=(1, 1))
                )
              )
              (norm): LayerNorm()
            )
          )
        )
      )
      (2): ModuleList(
        (0): Unfold(kernel_size=3, dilation=1, padding=1, stride=2)
        (1): Conv2d(576, 160, kernel_size=(1, 1), stride=(1, 1))
        (2): ModuleList(
          (0): ModuleList(
            (0): PreNorm(
              (fn): EfficientSelfAttention(
                (to_q): Conv2d(160, 160, kernel_size=(1, 1), stride=(1, 1), bias=False)
                (to_kv): Conv2d(160, 320, kernel_size=(2, 2), stride=(2, 2), bias=False)
                (to_out): Conv2d(160, 160, kernel_size=(1, 1), stride=(1, 1), bias=False)
              )
              (norm): LayerNorm()
            )
            (1): PreNorm(
              (fn): MixFeedForward(
                (net): Sequential(
                  (0): Conv2d(160, 640, kernel_size=(1, 1), stride=(1, 1))
                  (1): DsConv2d(
                    (net): Sequential(
                      (0): Conv2d(640, 640, kernel_size=(3, 3), stride=(1, 1), padding=(1, 1), groups=640)
                      (1): Conv2d(640, 640, kernel_size=(1, 1), stride=(1, 1))
                    )
                  )
                  (2): GELU(approximate='none')
                  (3): Conv2d(640, 160, kernel_size=(1, 1), stride=(1, 1))
                )
              )
              (norm): LayerNorm()
            )
          )
          (1): ModuleList(
            (0): PreNorm(
              (fn): EfficientSelfAttention(
                (to_q): Conv2d(160, 160, kernel_size=(1, 1), stride=(1, 1), bias=False)
                (to_kv): Conv2d(160, 320, kernel_size=(2, 2), stride=(2, 2), bias=False)
                (to_out): Conv2d(160, 160, kernel_size=(1, 1), stride=(1, 1), bias=False)
              )
              (norm): LayerNorm()
            )
            (1): PreNorm(
              (fn): MixFeedForward(
                (net): Sequential(
                  (0): Conv2d(160, 640, kernel_size=(1, 1), stride=(1, 1))
                  (1): DsConv2d(
                    (net): Sequential(
                      (0): Conv2d(640, 640, kernel_size=(3, 3), stride=(1, 1), padding=(1, 1), groups=640)
                      (1): Conv2d(640, 640, kernel_size=(1, 1), stride=(1, 1))
                    )
                  )
                  (2): GELU(approximate='none')
                  (3): Conv2d(640, 160, kernel_size=(1, 1), stride=(1, 1))
                )
              )
              (norm): LayerNorm()
            )
          )
        )
      )
      (3): ModuleList(
        (0): Unfold(kernel_size=3, dilation=1, padding=1, stride=2)
        (1): Conv2d(1440, 256, kernel_size=(1, 1), stride=(1, 1))
        (2): ModuleList(
          (0): ModuleList(
            (0): PreNorm(
              (fn): EfficientSelfAttention(
                (to_q): Conv2d(256, 256, kernel_size=(1, 1), stride=(1, 1), bias=False)
                (to_kv): Conv2d(256, 512, kernel_size=(1, 1), stride=(1, 1), bias=False)
                (to_out): Conv2d(256, 256, kernel_size=(1, 1), stride=(1, 1), bias=False)
              )
              (norm): LayerNorm()
            )
            (1): PreNorm(
              (fn): MixFeedForward(
                (net): Sequential(
                  (0): Conv2d(256, 1024, kernel_size=(1, 1), stride=(1, 1))
                  (1): DsConv2d(
                    (net): Sequential(
                      (0): Conv2d(1024, 1024, kernel_size=(3, 3), stride=(1, 1), padding=(1, 1), groups=1024)
                      (1): Conv2d(1024, 1024, kernel_size=(1, 1), stride=(1, 1))
                    )
                  )
                  (2): GELU(approximate='none')
                  (3): Conv2d(1024, 256, kernel_size=(1, 1), stride=(1, 1))
                )
              )
              (norm): LayerNorm()
            )
          )
          (1): ModuleList(
            (0): PreNorm(
              (fn): EfficientSelfAttention(
                (to_q): Conv2d(256, 256, kernel_size=(1, 1), stride=(1, 1), bias=False)
                (to_kv): Conv2d(256, 512, kernel_size=(1, 1), stride=(1, 1), bias=False)
                (to_out): Conv2d(256, 256, kernel_size=(1, 1), stride=(1, 1), bias=False)
              )
              (norm): LayerNorm()
            )
            (1): PreNorm(
              (fn): MixFeedForward(
                (net): Sequential(
                  (0): Conv2d(256, 1024, kernel_size=(1, 1), stride=(1, 1))
                  (1): DsConv2d(
                    (net): Sequential(
                      (0): Conv2d(1024, 1024, kernel_size=(3, 3), stride=(1, 1), padding=(1, 1), groups=1024)
                      (1): Conv2d(1024, 1024, kernel_size=(1, 1), stride=(1, 1))
                    )
                  )
                  (2): GELU(approximate='none')
                  (3): Conv2d(1024, 256, kernel_size=(1, 1), stride=(1, 1))
                )
              )
              (norm): LayerNorm()
            )
          )
        )
      )
    )
  )
  (to_fused): ModuleList(
    (0): Sequential(
      (0): Conv2d(32, 256, kernel_size=(1, 1), stride=(1, 1))
      (1): Upsample(scale_factor=1.0, mode=nearest)
    )
    (1): Sequential(
      (0): Conv2d(64, 256, kernel_size=(1, 1), stride=(1, 1))
      (1): Upsample(scale_factor=2.0, mode=nearest)
    )
    (2): Sequential(
      (0): Conv2d(160, 256, kernel_size=(1, 1), stride=(1, 1))
      (1): Upsample(scale_factor=4.0, mode=nearest)
    )
    (3): Sequential(
      (0): Conv2d(256, 256, kernel_size=(1, 1), stride=(1, 1))
      (1): Upsample(scale_factor=8.0, mode=nearest)
    )
  )
  (to_segmentation): Sequential(
    (0): Conv2d(1024, 256, kernel_size=(1, 1), stride=(1, 1))
    (1): Conv2d(256, 2, kernel_size=(1, 1), stride=(1, 1))
  )
)
Time: 2023-03-24 16:00:31,670 -- INFO: optimizer:adamw
Time: 2023-03-24 16:00:31,671 -- INFO: {'state': {}, 'param_groups': [{'lr': 0.0001, 'betas': (0.9, 0.999), 'eps': 1e-08, 'weight_decay': 0.01, 'amsgrad': False, 'foreach': None, 'maximize': False, 'capturable': False, 'initial_lr': 0.0001, 'params': [0, 1, 2, 3, 4, 5, 6, 7, 8, 9, 10, 11, 12, 13
…
